checkpoint.pt (torch, 25122 bytes, 9 tensors)

q_params.0 f4 [30]
000000 29 43 19 40 b2 ff 6f c0 28 8f 3b 41 36 33 54 bd
       2.3947241 -3.7499814 11.72245 -0.05180665
000010 73 4a 53 c1 45 2b db 40 08 2a 3b 41 b7 4f 42 41
       -13.205676 6.849032 11.697762 12.144462
000020 8e c3 83 41 a8 eb be c0 99 34 a9 41 07 e0 e1 3f
       16.470486 -5.9662666 21.150682 1.7646493
000030 b8 37 7c 41 97 a7 74 bf 10 5d 0f 40 a8 34 f2 c0
       15.763603 -0.9556822 2.240055 -7.568928
000040 a0 37 82 c0 e0 aa 6e 41 0c a0 0b 41 07 87 30 41
       -4.06929 14.916718 8.726574 11.032966
000050 47 41 69 3f d0 d4 da 40 7f a3 31 c1 29 e3 ca c0
       0.9111523 6.838478 -11.102416 -6.3402295
000060 d4 6e be c1 1b 27 16 41 67 53 51 42 6f 68 8c c1
       -23.804115 9.384547 52.331448 -17.550993
000070 32 4a 78 41 f8 92 42 41
       15.518114 12.160881

q_params.1 f4 [30]
000000 79 b9 d6 40 83 57 cd c0 a9 7e 9a 40 0a e6 a2 40
       6.7101407 -6.4169326 4.8279614 5.090581
000010 29 d8 a1 c0 41 83 4b c0 5f a8 46 c0 43 1d 79 c0
       -5.0576367 -3.179886 -3.1040266 -3.892411
000020 21 19 2a be 37 f4 0b 40 93 03 ca 3e 6f 2f bc 3f
       -0.16611148 2.1867807 0.39455852 1.4701976
000030 d8 21 9d be 24 c7 61 41 a0 10 0c c1 f1 f5 2a c0
       -0.30689883 14.111118 -8.754059 -2.671261
000040 47 c2 17 41 6f c8 c4 40 15 06 47 c0 de 0b e8 3f
       9.484931 6.149467 -3.1097462 1.8128622
000050 b6 a4 9e c0 03 b1 84 c0 8a 4f 27 41 8b f2 30 bf
       -4.9576063 -4.146608 10.456919 -0.6912009
000060 b3 f6 1e 41 5f 47 0d c0 75 16 c3 c0 b0 87 91 be
       9.935229 -2.2074811 -6.0964913 -0.28423834
000070 7a 7d 8e c0 7d 1e 12 c0
       -4.452817 -2.2831109

q_params.2 f4 [30]
000000 6c c3 3a 41 c5 32 af 3e 91 97 18 40 e0 7a e1 40
       11.67271 0.34218422 2.3842509 7.0462494
000010 7c 98 7d c0 53 b0 80 40 90 68 88 40 c5 0b ca 3d
       -3.962432 4.021524 4.262764 0.09865526
000020 1c 4f 4a 41 7a df c9 40 80 3b 22 bf 5c e7 0a c0
       12.644314 6.30853 -0.6337204 -2.170371
000030 81 41 2d 3f ac fd 15 3f a7 61 4c c0 9e 1d 86 40
       0.67678076 0.585902 -3.1934602 4.1911154
000040 e2 c3 07 c1 bf 0b 9a 40 50 73 38 c1 51 20 20 40
       -8.485323 4.813934 -11.528152 2.5019724
000050 a2 a4 c8 bf f8 d0 a2 c0 df ba b9 c0 df a3 b1 c0
       -1.5675242 -5.088009 -5.8040614 -5.551254
000060 f1 49 d6 bf a8 71 10 3f 56 9d 35 c1 fa b5 ec be
       -1.6741315 0.56423426 -11.350912 -0.46232587
000070 71 aa 08 be 43 26 05 40
       -0.13346268 2.0804603

q_params.3 f4 [30]
000000 31 24 c3 40 3e 0a c3 41 6c 03 2a c0 b2 41 f7 41
       6.098168 24.380001 -2.6564589 30.907078
000010 be 3b 7c c0 a1 8d 24 3f 4a ec 65 be 3f fa 84 c1
       -3.9411464 0.6427861 -0.22453418 -16.62219
000020 95 46 f4 41 d4 70 ed 3f 23 ba 4c 41 ca c7 41 41
       30.534464 1.8550057 12.795444 12.111277
000030 04 7c e9 c1 cb f6 4c 41 d8 11 8c 40 ac 19 68 41
       -29.185555 12.810252 4.377178 14.506268
000040 44 96 0d 40 79 40 39 c2 4b 6b 9c c1 43 19 92 c1
       2.2122965 -46.31296 -19.55239 -18.262335
000050 77 48 24 c1 9b 4e 53 bd c7 31 68 c1 27 f7 40 c1
       -10.267692 -0.051588636 -14.512153 -12.06034
000060 cf de 83 41 f4 a5 53 41 36 03 e3 c1 50 a2 f4 bf
       16.483793 13.228016 -28.376568 -1.9112034
000070 d9 c9 b4 41 22 0c 8b 41
       22.598558 17.380924

model.0.weight f4 [64, 64]
000000 be 2e ce 3c 29 63 e1 bc 55 2a cb 3c 20 3d c5 bd
       0.025168773 -0.027513104 0.024800459 -0.09630799
000010 05 4d d7 bd fa 65 a2 bd 91 a5 c1 bc be 6a 94 bd
       -0.10512737 -0.07929607 -0.023638519 -0.07246922
000020 39 8b 05 3e 9c 24 95 bc 33 10 f8 3d bf 42 24 3d
       0.1304139 -0.018205933 0.12112465 0.040102717
000030 f9 6b b9 bd 54 f8 9a 3d 2e ae 36 bd c1 7c b6 bc
       -0.09053797 0.07566896 -0.044599704 -0.022276284
000040 b9 a2 96 bd a3 2b fe bd 87 f7 35 3d c6 08 c8 bc
       -0.07355256 -0.12410667 0.044425514 -0.024418246
000050 a9 8e 71 3d af 21 ad bd 00 92 b0 3d f5 65 8e bd
       0.058973942 -0.0845369 0.08621597 -0.069530405
000060 6a c1 81 bb 8d 2c 15 3d 65 5e 61 3d 67 21 af 3d
       -0.0039598243 0.03641944 0.055021662 0.08551293
000070 23 2c 06 3e 93 9c d1 bd 96 f0 c8 3c 68 2a 0f bd
       0.13102774 -0.10234942 0.024528783 -0.03495255
000080 1b 0c df 3b 3a c9 c2 bd 73 86 fb 3d 3b 67 a2 bd
       0.006806863 -0.09511037 0.122815035 -0.07929846
000090 18 e4 bf 3d 63 a2 46 3d 7d 82 3c 3d 6a 87 5c bd
       0.09369677 0.048494708 0.04602288 -0.05384008
0000a0 d9 13 fc 3d 02 a6 f0 3c 44 dd 17 3d d0 99 ec bd
       0.12308473 0.029376034 0.03707625 -0.11552775
0000b0 5e 41 78 3d 2e 9f 3d bc 18 bf 3c bd bf bf f3 3d
       0.060609214 -0.011573596 -0.04608068 0.11901807
0000c0 b2 b5 80 3d 31 d4 6d bd 69 38 bc bd 19 02 61 bc
       0.06284656 -0.05806369 -0.09190447 -0.01373341
0000d0 7a f8 ae 3d a7 71 be bc d0 c5 a6 bd b1 43 f9 bb
       0.08543487 -0.023247553 -0.081431985 -0.0076069464
0000e0 b0 6c 69 bd ee fa 8c 3d 5c fe d8 3d f2 46 25 be
       -0.056988418 0.068837985 0.1059539 -0.16140345
0000f0 68 17 6c 3c 53 0e a5 3d fb a8 38 3d 69 88 5d bc
       0.014409877 0.08059373 0.045083027 -0.013521292
000100 be 51 a4 3d cf 1b 90 3d 67 26 3b 3d a5 83 89 bc
       0.080234036 0.07036554 0.04569092 -0.016786406
000110 17 30 01 bd fa 21 91 3b 46 cf 88 bc b3 0e ed bc
       -0.031540003 0.004429099 -0.016700398 -0.028937673
000120 d4 e0 b9 3d 0d 32 e0 3d 9c b3 86 bc b6 a6 b9 bc
       0.09076086 0.109470464 -0.016443066 -0.022662502
000130 ec 01 5a 3c 06 a6 23 bc d4 18 d7 3c 85 22 31 3d
       0.013306122 -0.009988314 0.026256956 0.04324581
000140 36 c4 d0 bd 22 cf 41 bd 4b a1 fe 3d 59 8a 34 3d
       -0.10193674 -0.047316678 0.12433108 0.04407725
000150 d5 e2 d7 ba 0e 73 a9 bd c0 ef a6 bd 1f 99 d0 bd
       -0.00164708 -0.08273898 -0.081511974 -0.101854555
000160 25 8f 0b bd d7 80 50 3d 5a 3f c0 3d c5 07 68 3d
       -0.03407206 0.05090412 0.09387083 0.056648035
000170 8f b8 d6 bd e0 8a 9e bd b5 1a a3 bc 18 2d 06 3e
       -0.104844205 -0.07741332 -0.019910196 0.1310314
000180 d4 88 e9 3c 6b 9f 1c bd dc 7b 74 3d 2f 24 44 bd
       0.028507628 -0.03823797 0.059688434 -0.04788607
000190 7a 8f 8f bd a1 9a b4 3d 43 d2 23 bd d7 ac 8d bc
       -0.07009788 0.088185556 -0.039995443 -0.01729433
0001a0 4b 3a f7 bd 00 f7 ac 3d 5f bb e5 3d 27 7e 20 3d
       -0.120716654 0.08445549 0.11217379 0.03918281
0001b0 2f 0d d6 bd 8e 95 0d be e1 76 b6 bd 07 89 c3 3d
       -0.10451733 -0.13826582 -0.08909393 0.0954762
0001c0 ac b6 87 3d 38 ca dd 3d 4f f2 98 3d 4e 51 22 3d
       0.06626639 0.10829586 0.07468092 0.03962832
0001d0 0a 6e b1 bc b1 a9 cd bd cb 64 d1 bd a5 65 e2 bd
       -0.021658916 -0.10042132 -0.10224303 -0.110545434
0001e0 16 9a 75 3d 26 a3 67 bd 3f a8 05 bd 04 4d b2 bd
       0.0599614 -0.056552075 -0.032631155 -0.08706096
0001f0 c3 da 4a bc a9 a0 a1 bd 5b 33 98 bd de b6 48 3d
       -0.012381258 -0.078919716 -0.0743167 0.04900252
000200 b5 d2 e6 bc ee 52 a5 3d cb 59 dc bc 97 5c d1 bd
       -0.028176645 0.08072458 -0.026898285 -0.10222738
000210 0b 5c 85 bc 4d 11 7a bd ad bb 03 bd 09 5a e1 bd
       -0.016279241 -0.061051656 -0.032161403 -0.11003501
000220 ba 71 9f 3d fa 38 bc bd ca a7 a7 3d 6a 34 72 3d
       0.077853635 -0.09190555 0.081863 0.059132017
000230 74 ca d8 3d 0c 44 d9 bd c6 eb b0 3d a0 4f 53 bd
       0.1058549 -0.10608682 0.0863872 -0.05158961
000240 62 6d 65 3d f0 08 ea 3d 85 06 75 3a 4c b8 5b bc
       0.05601252 0.11427486 0.000934698 -0.013410639
000250 ef 51 f6 bc e6 48 fb bd bf ce 90 3d 5e fe f0 bd
       -0.030068366 -0.12269764 0.07070684 -0.11767267
000260 23 5a ae 3d f2 01 e4 3d 51 d1 14 3e 26 1f 01 bd
       0.08513286 0.111331835 0.14532973 -0.031523846
000270 1c 60 c5 bd 8c 69 33 3d 85 08 bb 3d 0e 98 f0 bd
       -0.09637472 0.04380183 0.09132484 -0.11747752
000280 77 d8 bc bc 0c 8d b0 bd 0b e2 72 3b e6 39 54 bd
       -0.023052437 -0.086206526 0.0037061002 -0.05181303
000290 84 22 31 bd ff 84 02 bd aa 01 04 be ec df d9 3d
       -0.043245807 -0.031865116 -0.1289126 0.10638413
0002a0 1c a3 dc 3d 6b a4 99 bc b6 66 a7 39 63 1f 47 bd
       0.10773298 -0.018755158 0.00031929248 -0.048613917
0002b0 5e d8 d4 bd ad 77 eb bd 2a ff 1c 3d 8a 04 85 bd
       -0.10392831 -0.11497436 0.03832928 -0.064950064
0002c0 44 00 91 bd 33 61 7b bb fe 05 32 bd f0 ad 3e bd
       -0.07080129 -0.0038357496 -0.043462746 -0.0465526
0002d0 50 de 8b 3c be ec e6 bc bc d8 89 bd e9 d6 46 bd
       0.01707378 -0.02818906 -0.06730792 -0.048544798
0002e0 72 55 ba bd 35 b4 ec 3d 3f 5a 30 bd 40 b0 0d 3d
       -0.09098329 0.11557809 -0.043054815 0.034591913
0002f0 7e 89 6f bd ca 7e 75 bb c3 68 ee 3d 46 5c 8d 3d
       -0.058480732 -0.0037459605 0.116410755 0.069023654
000300 1a 8d 02 be b8 e2 1d 3d d1 e2 f1 3d b2 83 8c 3d
       -0.12749138 0.038546294 0.1181084 0.068610564
000310 8b 41 f6 3d bf 78 0a 3e 8e fb f8 bc 93 35 e0 3b
       0.1202422 0.13522623 -0.030393388 0.006842324
000320 2e fb d3 bd d6 2e 97 bc 6f d9 0e 3e 13 b3 d4 3d
       -0.10350643 -0.01845495 0.13950132 0.10385718
000330 8a e5 3e bd 8a c0 56 bd f2 75 9f bd 31 f0 10 be
       -0.046605624 -0.052429713 -0.07786168 -0.14154126
000340 16 71 f0 bd 8c 6a 3d bc d0 2c f7 3d f4 18 22 3d
       -0.117403194 -0.011561047 0.12069094 0.03957458
000350 ca 9e bf bd b1 eb 6a bd 7f dc 88 3d 7c 7d e8 bd
       -0.093564585 -0.05735368 0.06682681 -0.11352059
000360 07 dc e5 bc 98 41 87 3d c7 12 8b bc ea d1 0b 3b
       -0.028059019 0.06604308 -0.016976727 0.0021334835
000370 5b 26 b3 bc 9a 7a d3 3a a1 0c e5 bc 2f 21 01 be
       -0.021868875 0.001613456 -0.027960123 -0.12610315
000380 4d 95 ea bd 27 04 08 bd 9a 6d 12 3e d3 42 89 bd
       -0.11454258 -0.033207085 0.14299622 -0.06702199
000390 13 85 d5 bd b4 42 51 3d 7f d3 45 3d ec 99 64 3d
       -0.104257725 0.051089004 0.0482974 0.055810854
0003a0 a6 77 b4 3d 0f ef 97 3d bc 3d b5 bd 59 af ce 3c
       0.08811884 0.07418644 -0.088496655 0.025230097
0003b0 ab b1 b2 3d d8 f9 5c 3c f2 99 6c bd 69 c6 e5 3d
       0.08725294 0.013487302 -0.057764 0.11219484
0003c0 67 61 88 bd 4a c2 99 bd a9 81 40 bd c5 c5 13 3d
       -0.06659203 -0.07507761 -0.046998654 0.03607728
0003d0 f7 49 b0 3d 79 9b a4 3d 63 44 5f 3d 0b 00 f5 bd
       0.08607858 0.080374666 0.054508578 -0.11962899
0003e0 d5 3a 11 be 9a c1 5f bc 0d bb f7 3d c3 61 06 3e
       -0.14182599 -0.013656998 0.12096224 0.1312323
0003f0 df 61 79 bc 40 8a 19 3c e7 85 c9 bd ee 6e a1 bd
       -0.015221088 0.00937134 -0.09839993 -0.07882486

model.0.bias f4 [64]
000000 e1 f0 bd 3e de 8a 85 bc 32 d1 1c 3e 0d 62 8b bc
       0.3709784 -0.016301569 0.15314177 -0.017014528
000010 67 9f f2 bd 4d 5e 1c 3e 7b 58 d2 3e 45 12 22 3c
       -0.1184681 0.15270348 0.4108313 0.009892051
000020 4a a6 c7 3a eb 99 26 be 44 b2 1c 3e 83 48 83 3d
       0.0015232053 -0.16269653 0.15302378 0.06410315
000030 94 7a 67 3c 91 4d fa bd eb ff 00 3d a6 1e 1d bc
       0.014128346 -0.12221826 0.031494062 -0.009589827
000040 6c ae 34 3e 12 55 a6 3d 31 e2 02 3e a8 f7 17 3e
       0.17644662 0.081216946 0.12781598 0.14840567
000050 00 ea 00 bd cb 85 be be 60 ce d3 bc 80 e2 d1 bd
       -0.03147316 -0.3721145 -0.025855243 -0.102482796
000060 3a 3c 0d 3d 04 ec ed 3d e2 2e 36 3d bf fe 35 3e
       0.034481265 0.11617282 0.044478305 0.17772959
000070 47 7b 98 3e c6 b6 f3 bd 19 8d 2c 3e 46 09 26 bf
       0.29781553 -0.11900096 0.168507 -0.648579
000080 0b c0 b1 3e 81 d6 41 bd 32 b9 27 3f 46 73 ca 3c
       0.3471683 -0.047323707 0.6551696 0.02471317
000090 1f 5d 55 3e 0e 7e 62 be b7 2a 4a 3e 54 75 81 bd
       0.20836304 -0.22118399 0.19742857 -0.06321207
0000a0 2d 61 0e 3e c2 e8 7a 3e b6 69 12 bd e8 fb 48 3f
       0.13904257 0.24502853 -0.035745345 0.7850938
0000b0 34 f1 e2 3c 8a 4a 03 bf a2 e4 32 3c 4e b1 10 3e
       0.027702905 -0.5128561 0.010918768 0.14130136
0000c0 da 8c 32 be 56 be a0 bc e8 a1 05 be bf 07 89 3e
       -0.17436543 -0.01962201 -0.13050044 0.26763722
0000d0 38 6c 59 bd b4 32 6c 3d 68 6d 46 3d 0a c5 2e 3d
       -0.05308172 0.05766554 0.04844418 0.04266838
0000e0 c0 78 35 3c db 24 e8 bd 4d 68 da bc e4 e9 0d bf
       0.011076152 -0.113351546 -0.026661063 -0.55435014
0000f0 bc 97 9d 3e 28 93 93 be 1b fd 13 3e 66 35 81 3e
       0.30779827 -0.2882321 0.14452021 0.25236052

model.2.weight f4 [16, 64]
000000 ef a9 98 bd 9a d7 15 be 57 8d d4 bd 15 9b c1 3d
       -0.07454287 -0.14633027 -0.10378521 0.09453408
000010 72 63 a2 3d 98 f0 05 be fd ee 3b be 75 58 de 3d
       0.07929124 -0.1308006 -0.18352886 0.108567156
000020 85 d1 8f bc 17 6c 4e 3e b7 17 9c bd fb e6 9f 3d
       -0.017555961 0.2015842 -0.07621711 0.07807728
000030 81 83 54 3c 01 ee d7 bc 8d a5 37 3e 0c 34 f6 bd
       0.012970806 -0.026358606 0.17934246 -0.12021646
000040 5d d8 b0 bd 02 fb 22 3d 0f aa 3c be 34 cb 2c be
       -0.08635018 0.03979016 -0.18424247 -0.16874391
000050 e9 33 8e 3d e8 81 79 3e 94 1b 86 3d 60 33 ec 3b
       0.06943495 0.24365962 0.06548229 0.007208273
000060 e8 5e da bd 29 70 78 3b 47 6d 81 bd 2e 6f 3e be
       -0.10662633 0.003790865 -0.06319671 -0.18597099
000070 90 da a9 bc c0 24 d5 bd 4c 11 51 3d 2d 75 12 3f
       -0.020734102 -0.104074 0.051041886 0.57210046
000080 17 8d 13 be 08 58 89 3d a6 ec 98 be 6b b4 31 bd
       -0.1440929 0.06706244 -0.29868048 -0.04338495
000090 54 66 33 be b0 a9 8e 3e 73 a2 ec 3d 31 32 c0 bd
       -0.17519504 0.27863836 0.11554422 -0.09384573
0000a0 13 7a 92 3d 9d 07 ec bd 6f 2f d7 3d f9 34 6d be
       0.0715219 -0.115248896 0.10507094 -0.23164739
0000b0 38 4d 08 be 26 3d f7 3e e8 2c 24 bd 39 fc 8a 3c
       -0.13310707 0.4828884 -0.04008189 0.016965972
0000c0 65 b5 43 3e 4f 47 43 3e 6c 84 03 3d eb e5 75 be
       0.19112165 0.19070171 0.03210871 -0.24013488
0000d0 f1 80 50 bd e3 25 d8 3d 02 db 25 bb c3 1f ba bd
       -0.050904218 0.10554101 -0.002530754 -0.09088089
0000e0 bd b5 e6 bd 5b 71 93 bd b8 f8 c4 bd ff 90 de 3e
       -0.112651326 -0.07199355 -0.09617752 0.43469998
0000f0 7b 6b e5 bc b3 a8 a7 3e c0 d4 be 3c 77 9d 15 be
       -0.028005352 0.32745895 0.023294806 -0.1461085
000100 f9 13 89 3d a5 d4 93 3d b6 c8 d9 bd 1e 48 5d 3d
       0.066932626 0.07218293 -0.10633986 0.054023854
000110 03 1f af bd 30 59 d3 3d 57 1b 54 bd b0 77 d4 3c
       -0.08550837 0.103197455 -0.051783886 0.025935978
000120 73 a0 ce 35 36 3b 56 3d 03 32 a2 3c bf 69 ba bd
       1.5394893e-06 0.05230256 0.019799238 -0.09102201
000130 37 8d 4f 3d d8 38 97 3d f9 85 8e bd a7 e0 a4 bd
       0.050671782 0.07383889 -0.06959147 -0.080506615
000140 07 9d b5 bd 85 dc 87 bd 14 1e a5 bc 13 4e 36 3c
       -0.08867841 -0.06633858 -0.020155944 0.011127013
000150 00 1e 67 ba e5 a1 37 bd 2d 58 9d 3d f8 ba db 3b
       -0.0008816421 -0.04483213 0.07682834 0.006705638
000160 ec a1 9b bd 17 8d e1 bc d6 d2 92 bd 3b 26 2f bd
       -0.075992435 -0.027533097 -0.0716912 -0.04276107
000170 28 e7 ef bd 80 ec b2 3c bf 18 d5 bd e8 4e e2 3c
       -0.117140114 0.021841288 -0.104051106 0.027625516
000180 7b 0e ae 3d 0a 72 be bd bd b8 83 bd 79 38 cc bd
       0.08498856 -0.09299095 -0.064317204 -0.09971709
000190 18 74 19 3d 45 2a be 3c c3 2f 8b bd dc c6 9a 3d
       0.03746423 0.023213515 -0.06796219 0.07557461
0001a0 2e 38 35 3d 1f ae e5 bd 3c 8c a3 bb 15 f1 53 bd
       0.04424303 -0.112148516 -0.0049910825 -0.051743586
0001b0 70 8f a1 bc ff f3 76 3d 2a 2f 5d bc 91 f1 b5 bd
       -0.019721717 0.060291287 -0.013500014 -0.08883966
0001c0 9f e9 9d 3d 9f 7b e5 bd 61 61 2d bd 73 4b 58 3d
       0.07710575 -0.112052195 -0.042329196 0.05280633
0001d0 e1 60 e2 3d 59 61 fa 3d 36 b1 f2 bc e4 46 44 3d
       0.110536344 0.12225599 -0.029625516 0.04791917
0001e0 24 c7 ea bd 29 f5 c4 bc 6d 65 36 bd 4c c2 ed 3c
       -0.11463764 -0.024042683 -0.04453032 0.029023312
0001f0 20 a7 a3 bd ce 9a b8 3c f9 77 86 3d d7 7c d3 3d
       -0.07990861 0.022534754 0.06565852 0.10326546
000200 a6 9a c4 bb 8b bb f2 3d 59 24 e4 bd 5e 40 ec bc
       -0.005999881 0.11852177 -0.11139745 -0.028839286
000210 46 7a 43 3d c2 6a 4a 3d 93 41 a7 3d 12 79 a8 bd
       0.04772403 0.04941822 0.08166804 -0.08226217
000220 43 d6 a9 3d bc 5e f7 bd 48 2b 9f bd fd 89 b8 3a
       0.0829282 -0.12078616 -0.07771927 0.001407921
000230 e2 cd f6 bd cd 41 f3 bd 24 8e c3 bd 31 da dd 3d
       -0.12050988 -0.11877785 -0.095485955 0.10832632
000240 0b be 32 3d c6 83 d9 bc b6 f8 07 3c 3d 84 be bd
       0.04363827 -0.026552092 0.008299043 -0.09302566
000250 ad 59 ef bd bd 11 b2 bd 40 8c e7 bd ea bd a9 3d
       -0.11687026 -0.086947896 -0.113060474 0.08288176
000260 36 2e dd bc 2e c3 ad bc 02 29 d0 bd 5a f3 42 3d
       -0.026999574 -0.021211233 -0.101640716 0.04759536
000270 54 7b fd ba 5f 3e ad bd 42 89 e2 3d 49 87 e4 3d
       -0.0019339123 -0.08459162 0.11061336 0.11158616
000280 f4 f0 96 bd 88 a9 91 3d bf f8 fb 3b 9a 4c 85 3a
       -0.07370177 0.07112414 0.007689565 0.0010169924
000290 4f 98 88 3d 12 d3 63 bc 7c 1e 09 3e d9 b8 9d 3d
       0.066696756 -0.013905304 0.13390535 0.077012725
0002a0 96 a1 66 bd 4a 28 77 bd 0a 96 fc bd 0e b1 b9 3d
       -0.056306444 -0.060341157 -0.12333305 0.090669736
0002b0 e9 3b b2 bd 55 60 e7 bd 3e 13 9e bd 81 13 de bd
       -0.08702833 -0.11297671 -0.07718514 -0.10843564
0002c0 97 83 bf bd 07 91 f7 3d 6c cc 8f 3d bc 1c 09 3e
       -0.09351271 0.12088209 0.07021412 0.13389868
0002d0 a3 7a 70 bd c1 ec 4c bd 10 15 02 bd 9c 40 9e 3b
       -0.058710705 -0.050030474 -0.031758368 0.0048294794
0002e0 4d b0 a8 bd 19 ab 98 3c 2c 0a 95 bd 1c 5b f3 3b
       -0.08236752 0.018636273 -0.07277331 0.0074266326
0002f0 01 b8 17 3e 35 d0 f5 3c 74 cd d0 3d 0f 42 9e bd
       0.14816286 0.030006507 0.10195437 -0.077274434
000300 9a cb e1 bd cd e9 d7 bd cf 85 ac bd ba 60 6f 3d
       -0.11025162 -0.10542641 -0.084239595 0.058441855
000310 9f 53 93 bd f6 1c 57 be f0 86 3b be 35 88 70 3c
       -0.07193684 -0.21007141 -0.18313193 0.014680912
000320 fa 9e 71 bd 9a f0 6f 3b ab 17 84 3d 3c 0d b7 3d
       -0.058989502 0.0036611916 0.06449827 0.08938071
000330 6d 14 a2 bd 0f d5 47 3c 02 2b 5a 3e 73 6e 09 be
       -0.07914052 0.012196793 0.21305469 -0.1342104
000340 7b 55 35 be 2f cc 81 3d dc 24 68 bd d4 9a 2e bd
       -0.1770839 0.06337773 -0.056675777 -0.042628124
000350 11 d9 6d bd 36 3d 5f 3e 60 93 12 3e bb 19 0d bd
       -0.05806834 0.21800694 0.14314032 -0.034448367
000360 f2 4d 97 bd 09 11 48 be b1 b0 6d bd e7 2d 00 bd
       -0.07387914 -0.19537748 -0.058029834 -0.031293776
000370 2c ec 38 be 08 f7 1e bc bf 8b 27 3e 83 75 d9 3e
       -0.18058842 -0.0097024515 0.16361903 0.42472467
000380 c6 e5 01 be 50 74 1d bd 69 3b 4a be f7 87 1e 3c
       -0.12685308 -0.038441002 -0.19749226 0.009675971
000390 8e 0e 5c be ec e7 40 3e c7 df 04 3d ce 39 86 bc
       -0.21489927 0.18838471 0.032439973 -0.016384985
0003a0 d8 b1 9e 3c 98 af 98 bc 43 54 ae bd f7 f0 af be
       0.019371912 -0.018638417 -0.085121654 -0.3436353
0003b0 5e 23 0d be b5 76 5b 3e 11 1b 95 bd ed 93 10 3e
       -0.13783023 0.21432002 -0.07280553 0.14118929
0003c0 d1 11 0e 3d 6b ab 44 bc 13 e8 d9 bd e4 59 20 be
       0.03468496 -0.01200376 -0.10639968 -0.1565929
0003d0 a9 cd 43 bc f4 9a ab bd e9 2b 3a 3d fd c3 8a 3c
       -0.011950889 -0.08379164 0.045452032 0.016939158
0003e0 83 21 05 bd 81 14 53 3d ae 05 14 3c 79 0d e6 3e
       -0.032502662 0.051533226 0.009034557 0.44932154
0003f0 d9 dc 82 bd 09 75 8d 3e e1 b5 3c 3d b0 1c 5f bd
       -0.063897796 0.27628353 0.04607189 -0.054470718

model.2.bias f4 [16]
000000 41 8d dd be 4c 59 5d 3d cb a9 ab 3d e2 d9 83 be
       -0.4327183 0.05404024 0.08381995 -0.2575217
000010 e8 21 2b 3f f8 0c da be 21 c0 a0 3e be 33 29 bd
       0.6684861 -0.4258802 0.31396583 -0.04130911
000020 23 f0 98 be 3d 39 07 3e 26 43 c3 bd 14 30 17 3e
       -0.2987071 0.13205428 -0.09534292 0.14764434
000030 9e 98 8e bd 48 e6 c4 3e 0b da 93 bd 13 29 27 3f
       -0.06962703 0.3845694 -0.07219323 0.6529705

model.4.weight f4 [1, 16]
000000 c8 fd a8 3f a6 3b 7c be 48 0c 34 be 54 0b 83 3f
       1.3202448 -0.24632129 -0.1758281 1.0237832
000010 c0 dc 8f bf d7 19 ac 3f 67 ce 09 bf 64 d4 70 be
       -1.1239243 1.3445386 -0.5383057 -0.2351852
000020 fe 4f 5b 3f fa 3b 91 be 9e 46 9b 3e f2 38 d6 be
       0.85668933 -0.2836607 0.30327314 -0.4184032
000030 ff e1 6f 3e 2b 62 5b bf 21 80 21 3e 85 52 85 bf
       0.23426054 -0.8569667 0.15771534 -1.0415808
